…
IN this model on a down-stream task to be able to use it for predictions and inference.\n","output_type":"stream"},{"output_type":"display_data","data":{"text/plain":"adapter_model.safetensors:   0%|          | 0.00/311M [00:00<?, ?B/s]","application/vnd.jupyter.widget-view+json":{"version_major":2,"version_minor":0,"model_id":"77060735bdfb4eb686d663f89a958239"}},"metadata":{}},{"execution_count":11,"output_type":"execute_result","data":{"text/plain":"PeftModelForCausalLM(\n  (base_model): LoraModel(\n    (model): DeepseekOCRForCausalLM(\n      (model): DeepseekOCRModel(\n        (embed_tokens): Embedding(129280, 1280)\n        (layers): ModuleList(\n          (0): DeepseekV2DecoderLayer(\n            (self_attn): LlamaAttention(\n              (q_proj): lora.Linear(\n                (base_layer): Linear(in_features=1280, out_features=1280, bias=False)\n                (lora_dropout): ModuleDict(\n                  (default): Identity()\n                )\n                (lora_A): ModuleDict(\n                  (default): Linear(in_features=1280, out_features=16, bias=False)\n                )\n                (lora_B): ModuleDict(\n                  (default): Linear(in_features=16, out_features=1280, bias=False)\n                )\n                (lora_embedding_A): ParameterDict()\n                (lora_embedding_B): ParameterDict()\n                (lora_magnitude_vector): ModuleDict()\n              )\n              (k_proj): lora.Linear(\n                (base_layer): Linear(in_features=1280, out_features=1280, bias=False)\n                (lora_dropout): ModuleDict(\n                  (default): Identity()\n                )\n                (lora_A): ModuleDict(\n                  (default): Linear(in_features=1280, out_features=16, bias=False)\n                )\n                (lora_B): ModuleDict(\n                  (default): Linear(in_features=16, out_features=1280, bias=False)\n                )\n                (lora_embedding_A): ParameterDict()\n                (lora_embedding_B): ParameterDict()\n                (lora_magnitude_vector): ModuleDict()\n              )\n              (v_proj): lora.Linear(\n                (base_layer): Linear(in_features=1280, out_features=1280, bias=False)\n                (lora_dropout): ModuleDict(\n                  (default): Identity()\n                )\n                (lora_A): ModuleDict(\n                  (default): Linear(in_features=1280, out_features=16, bias=False)\n                )\n                (lora_B): ModuleDict(\n                  (default): Linear(in_features=16, out_features=1280, bias=False)\n                )\n                (lora_embedding_A): ParameterDict()\n                (lora_embedding_B): ParameterDict()\n                (lora_magnitude_vector): ModuleDict()\n              )\n              (o_proj): lora.Linear(\n                (base_layer): Linear(in_features=1280, out_features=1280, bias=False)\n                (lora_dropout): ModuleDict(\n                  (default): Identity()\n                )\n                (lora_A): ModuleDict(\n                  (default): Linear(in_features=1280, out_features=16, bias=False)\n                )\n                (lora_B): ModuleDict(\n                  (default): Linear(in_features=16, out_features=1280, bias=False)\n                )\n                (lora_embedding_A): ParameterDict()\n                (lora_embedding_B): ParameterDict()\n                (lora_magnitude_vector): ModuleDict()\n              )\n            )\n            (mlp): DeepseekV2MLP(\n              (gate_proj): lora.Linear(\n                (base_layer): Linear(in_features=1280, out_features=6848, bias=False)\n                (lora_dropout): ModuleDict(\n                  (default): Identity()\n                )\n                (lora_A): ModuleDict(\n                  (default): Linear(in_features=1280, out_features=16, bias=False)\n                )\n                (lora_B): ModuleDict(\n                  (default): Linear(in_features=16, out_features=6848, bias=False)\n                )\n                (lora_embedding_A): ParameterDict()\n                (lora_embedding_B): ParameterDict()\n                (lora_magnitude_vector): ModuleDict()\n              )\n              (up_proj): lora.Linear(\n                (base_layer): Linear(in_features=1280, out_features=6848, bias=False)\n                (lora_dropout): ModuleDict(\n                  (default): Identity()\n                )\n                (lora_A): ModuleDict(\n                  (default): Linear(in_features=1280, out_features=16, bias=False)\n                )\n                (lora_B): ModuleDict(\n                  (default): Linear(in_features=16, out_features=6848, bias=False)\n                )\n                (lora_embedding_A): ParameterDict()\n                (lora_embedding_B): ParameterDict()\n                (lora_magnitude_vector): ModuleDict()\n              )\n              (down_proj): lora.Linear(\n                (base_layer): Linear(in_features=6848, out_features=1280, bias=False)\n                (lora_dropout): ModuleDict(\n                  (default): Identity()\n                )\n                (lora_A): ModuleDict(\n                  (default): Linear(in_features=6848, out_features=16, bias=False)\n                )\n                (lora_B): ModuleDict(\n                  (default): Linear(in_features=16, out_features=1280, bias=False)\n                )\n                (lora_embedding_A): ParameterDict()\n                (lora_embedding_B): ParameterDict()\n                (lora_magnitude_vector): ModuleDict()\n              )\n              (act_fn): SiLU()\n            )\n            (input_layernorm): DeepseekV2RMSNorm((1280,), eps=1e-06)\n            (post_attention_layernorm): DeepseekV2RMSNorm((1280,), eps=1e-06)\n          )\n          (1-11): 11 x DeepseekV2DecoderLayer(\n            (self_attn): LlamaAttention(\n              (q_proj): lora.Linear(\n                (base_layer): Linear(in_features=1280, out_features=1280, bias=False)\n                (lora_dropout): ModuleDict(\n                  (default): Identity()\n                )\n                (lora_A): ModuleDict(\n                  (default): Linear(in_features=1280, out_features=16, bias=False)\n                )\n                (lora_B): ModuleDict(\n                  (default): Linear(in_features=16, out_features=1280, bias=False)\n                )\n                (lora_embedding_A): ParameterDict()\n                (lora_embedding_B): ParameterDict()\n                (lora_magnitude_vector): ModuleDict()\n              )\n              (k_proj): lora.Linear(\n                (base_layer): Linear(in_features=1280, out_features=1280, bias=False)\n                (lora_dropout): ModuleDict(\n                  (default): Identity()\n                )\n                (lora_A): ModuleDict(\n                  (default): Linear(in_features=1280, out_features=16, bias=False)\n                )\n                (lora_B): ModuleDict(\n                  (default): Linear(in_features=16, out_features=1280, bias=False)\n                )\n                (lora_embedding_A): ParameterDict()\n                (lora_embedding_B): ParameterDict()\n                (lora_magnitude_vector): ModuleDict()\n              )\n              (v_proj): lora.Linear(\n                (base_layer): Linear(in_features=1280, out_features=1280, bias=False)\n                (lora_dropout): ModuleDict(\n                  (default): Identity()\n                )\n                (lora_A): ModuleDict(\n                  (default): Linear(in_features=1280, out_features=16, bias=False)\n                )\n                (lora_B): ModuleDict(\n                  (default): Linear(in_features=16, out_features=1280, bias=False)\n                )\n                (lora_embedding_A): ParameterDict()\n                (lora_embedding_B): ParameterDict()\n                (lora_magnitude_vector): ModuleDict()\n              )\n              (o_proj): lora.Linear(\n                (base_layer): Linear(in_features=1280, out_features=1280, bias=False)\n                (lora_dropout): ModuleDict(\n                  (default): Identity()\n                )\n                (lora_A): ModuleDict(\n                  (default): Linear(in_features=1280, out_features=16, bias=False)\n                )\n                (lora_B): ModuleDict(\n                  (default): Linear(in_features=16, out_features=1280, bias=False)\n                )\n                (lora_embedding_A): ParameterDict()\n                (lora_embedding_B): ParameterDict()\n                (lora_magnitude_vector): ModuleDict()\n              )\n            )\n            (mlp): DeepseekV2MoE(\n              (experts): ModuleList(\n                (0-63): 64 x DeepseekV2MLP(\n                  (gate_proj): lora.Linear(\n                    (base_layer): Linear(in_features=1280, out_features=896, bias=False)\n                    (lora_dropout): ModuleDict(\n                      (default): Identity()\n                    )\n                    (lora_A): ModuleDict(\n                      (default): Linear(in_features=1280, out_features=16, bias=False)\n                    )\n                    (lora_B): ModuleDict(\n                      (default): Linear(in_features=16, out_features=896, bias=False)\n                    )\n                    (lora_embedding_A): ParameterDict()\n                    (lora_embedding_B): ParameterDict()\n                    (lora_magnitude_vector): ModuleDict()\n                  )\n                  (up_proj): lora.Linear(\n                    (base_layer): Linear(in_features=1280, out_features=896, bias=False)\n                    (lora_dropout): ModuleDict(\n                      (default): Identity()\n                    )\n                    (lora_A): ModuleDict(\n                      (default): Linear(in_features=1280, out_features=16, bias=False)\n                    )\n                    (lora_B): ModuleDict(\n                      (default): Linear(in_features=16, out_features=896, bias=False)\n                    )\n                    (lora_embedding_A): ParameterDict()\n                    (lora_embedding_B): ParameterDict()\n                    (lora_magnitude_vector): ModuleDict()\n                  )\n                  (down_proj): lora.Linear(\n                    (base_layer): Linear(in_features=896, out_features=1280, bias=False)\n                    (lora_dropout): ModuleDict(\n                      (default): Identity()\n                    )\n                    (lora_A): ModuleDict(\n                      (default): Linear(in_features=896, out_features=16, bias=False)\n                    )\n                    (lora_B): ModuleDict(\n                      (default): Linear(in_features=16, out_features=1280, bias=False)\n                    )\n                    (lora_embedding_A): ParameterDict()\n                    (lora_embedding_B): ParameterDict()\n                    (lora_magnitude_vector): ModuleDict()\n                  )\n                  (act_fn): SiLU()\n                )\n              )\n              (gate): DeepseekV2MoEGate()\n              (shared_experts): DeepseekV2MLP(\n                (gate_proj): lora.Linear(\n                  (base_layer): Linear(in_features=1280, out_features=1792, bias=False)\n                  (lora_dropout): ModuleDict(\n                    (default): Identity()\n                  )\n                  (lora_A): ModuleDict(\n                    (default): Linear(in_features=1280, out_features=16, bias=False)\n                  )\n                  (lora_B): ModuleDict(\n                    (default): Linear(in_features=16, out_features=1792, bias=False)\n                  )\n                  (lora_embedding_A): ParameterDict()\n                  (lora_embedding_B): ParameterDict()\n                  (lora_magnitude_vector): ModuleDict()\n                )\n                (up_proj): lora.Linear(\n                  (base_layer): Linear(in_features=1280, out_features=1792, bias=False)\n                  (lora_dropout): ModuleDict(\n                    (default): Identity()\n                  )\n                  (lora_A): ModuleDict(\n                    (default): Linear(in_features=1280, out_features=16, bias=False)\n                  )\n                  (lora_B): ModuleDict(\n                    (default): Linear(in_features=16, out_features=1792, bias=False)\n                  )\n                  (lora_embedding_A): ParameterDict()\n                  (lora_embedding_B): ParameterDict()\n                  (lora_magnitude_vector): ModuleDict()\n                )\n                (down_proj): lora.Linear(\n                  (base_layer): Linear(in_features=1792, out_features=1280, bias=False)\n                  (lora_dropout): ModuleDict(\n                    (default): Identity()\n                  )\n                  (lora_A): ModuleDict(\n                    (default): Linear(in_features=1792, out_features=16, bias=False)\n                  )\n                  (lora_B): ModuleDict(\n                    (default): Linear(in_features=16, out_features=1280, bias=False)\n                  )\n                  (lora_embedding_A): ParameterDict()\n                  (lora_embedding_B): ParameterDict()\n                  (lora_magnitude_vector): ModuleDict()\n                )\n                (act_fn): SiLU()\n              )\n            )\n            (input_layernorm): DeepseekV2RMSNorm((1280,), eps=1e-06)\n            (post_attention_layernorm): DeepseekV2RMSNorm((1280,), eps=1e-06)\n          )\n        )\n        (norm): DeepseekV2RMSNorm((1280,), eps=1e-06)\n        (rotary_emb): LlamaRotaryEmbedding()\n        (sam_model): ImageEncoderViT(\n          (patch_embed): PatchEmbed(\n            (proj): Conv2d(3, 768, kernel_size=(16, 16), stride=(16, 16))\n          )\n          (blocks): ModuleList(\n            (0-11): 12 x Block(\n              (norm1): LayerNorm((768,), eps=1e-06, elementwise_affine=True)\n              (attn): Attention(\n                (qkv): Linear(in_features=768, out_features=2304, bias=True)\n                (proj): Linear(in_features=768, out_features=768, bias=True)\n              )\n              (norm2): LayerNorm((768,), eps=1e-06, elementwise_affine=True)\n              (mlp): MLPBlock(\n                (lin1): Linear(in_features=768, out_features=3072, bias=True)\n                (lin2): Linear(in_features=3072, out_features=768, bias=True)\n                (act): GELU(approximate='none')\n              )\n            )\n          )\n          (neck): Sequential(\n            (0): Conv2d(768, 256, kernel_size=(1, 1), stride=(1, 1), bias=False)\n            (1): LayerNorm2d()\n            (2): Conv2d(256, 256, kernel_size=(3, 3), stride=(1, 1), padding=(1, 1), bias=False)\n            (3): LayerNorm2d()\n          )\n          (net_2): Conv2d(256, 512, kernel_size=(3, 3), stride=(2, 2), padding=(1, 1), bias=False)\n          (net_3): Conv2d(512, 1024, kernel_size=(3, 3), stride=(2, 2), padding=(1, 1), bias=False)\n        )\n        (vision_model): VitModel(\n          (embeddings): CLIPVisionEmbeddings(\n            (patch_embedding): Conv2d(3, 1024, kernel_size=(14, 14), stride=(14, 14), bias=False)\n            (position_embedding): Embedding(257, 1024)\n          )\n          (transformer): NoTPTransformer(\n            (layers): ModuleList(\n              (0-23): 24 x NoTPTransformerBlock(\n                (self_attn): NoTPAttention(\n                  (qkv_proj): Linear(in_features=1024, out_features=3072, bias=True)\n                  (out_proj): Linear(in_features=1024, out_features=1024, bias=True)\n                )\n                (mlp): NoTPFeedForward(\n                  (fc1): Linear(in_features=1024, out_features=4096, bias=True)\n                  (fc2): Linear(in_features=4096, out_features=1024, bias=True)\n                )\n                (layer_norm1): LayerNorm((1024,), eps=1e-05, elementwise_affine=True)\n                (layer_norm2): LayerNorm((1024,), eps=1e-05, elementwise_affine=True)\n              )\n            )\n          )\n          (pre_layrnorm): LayerNorm((1024,), eps=1e-05, elementwise_affine=True)\n        )\n        (projector): MlpProjector(\n          (layers): Linear(in_features=2048, out_features=1280, bias=True)\n        )\n      )\n      (lm_head): Linear(in_features=1280, out_features=129280, bias=False)\n    )\n  )\n)"},"metadata":{}}],"execution_count":11},{"cell_type":"code","source":"result_path = '/kaggle/working/finetune_labels.json'\nall_results = predict_OCR_test(model_ft, tokenizer_ft)\n\nwith open(result_path, 'w', encoding='utf-8') as f:\n    json.dump(all_results, f, ensure_ascii=False, indent=2)","metadata":{"trusted":true,"execution"
…
